Week06/27822753_ConvNet.pt (torch, 102727 bytes, 8 tensors)

conv1.weight f4 [6, 1, 5, 5]
00000000: 23e2 8d3e dd15 983c 87cd b0bc f99f 3cbe
00000010: 36fa 323e b47c 9a3d 45a8 5cbe 1717 afbe
00000020: 220c b6be 9663 a1ba ee1f 88be 9795 f3be
00000030: ef89 87be 7966 f2be 317b 8fbe e07d 8ebe
00000040: 1415 8bbe f8aa 8fbe 91c9 b1be 9f86 72be
00000050: c47d 8cbe 9cb4 b9be 7d0e 80be fdc5 96be
00000060: c8ea 84bd 59e2 ddbe a4d2 adbe 6503 24bd
00000070: 17f5 45be b07e ad3c 0eb5 7ebe d98c bebe
00000080: c560 a2bd a0da 52bd 25bf eabd 9074 a83d
00000090: e42f 963d 0362 463e 9097 8c3d 2652 3dbe
000000a0: 2ccf b33e b3e6 ec3e 691f b23e 6a7a 243d
000000b0: 2e59 80bd 84f7 d13e 6231 1c3e fa0c 883d
000000c0: 31d2 40be f40a bd3d a177 6dbe 9b34 ca3d
000000d0: 8cb9 bb3e 3557 873e d5c1 71bd a406 6abe
000000e0: ee84 04be afbc 7c3e 6755 a83e 1454 62be
000000f0: f9ce d0bd d085 dbbc bde3 9e3e 899a d7bb
00000100: 3464 093e 02b5 0fbe 7ef0 1f3e 703d be3e
00000110: 0aef 80bb 131c 273e 62c4 8c3b c7c0 813e
00000120: 7ebb 793e dca3 fabc 8499 5fbe 14a9 be3c
00000130: 77cc ba3e 6b1b c13e 10d0 81be 1d18 d1be
00000140: 31f4 123e 17c2 e13e 9bd5 573e ba31 dabe
00000150: 6b1a 98be 6d00 303d ecd9 ec3e 1b60 1e3e
00000160: 1e21 85be 29e3 d0be d7ea fe3d cd5e d83e
00000170: 8afc fe3d c465 49be 338b 34be e77c f03d
00000180: f3e0 5f3e 99c9 653e 0a35 8f3d 9dca 80be
00000190: 987d 3b3e cb45 29bd eeb7 9ebe f008 8cbe
000001a0: 64b6 dfbe 1fc7 213e b056 3d3e 0ed0 633e
000001b0: 2bf8 a7bd d3fa 48be eacf 5c3e 4166 883e
000001c0: 6ef7 093f 20db 223f bd4d 9b3e 41d0 79be
000001d0: a0e1 5b3e 93b0 0f3e ce7d 8a3e 773d ad3e
000001e0: 6f97 8dbe b196 96be 7c6d d4be fd80 9dbe
000001f0: 9a4a 933d b2f2 323e fe44 94bc e92d 18be
00000200: 3426 6f3d e3de 873e 3a5d 063e b394 0fbe
00000210: ba78 f23d a477 4bbd b19a de3d d7de 20bc
00000220: 8d0d 773e 0f85 1e3d 4b3e 92be 0553 133c
00000230: d3f4 543e 2b17 df3d ce7c 0fbe df0b 01be
00000240: ca80 70bd 35ff 113e 163a a53d ffa8 20bd
00000250: 6cfb ed3c 9644 83be
0.2771159 0.018565113 -0.021582378 -0.184204 0.1747826 0.075433165 -0.21548565 -0.34197304
-0.35556132 -0.0012313004 -0.2658686 -0.47575065 -0.26472422 -0.47343805 -0.28023675 -0.2783041
-0.2716452 -0.28060126 -0.34724095 -0.23684166 -0.27439702 -0.36270607 -0.25011054 -0.29447928
-0.064900935 -0.43336752 -0.3394977 -0.0400423 -0.19331776 0.021178573 -0.24873754 -0.37216833
-0.079286136 -0.05147803 -0.11462239 0.082253575 0.07333353 0.19373326 0.06864846 -0.18488368
0.35118997 0.4626976 0.3478959 0.040155806 -0.0626701 0.41009152 0.15253213 0.066431
-0.18830182 0.09230605 -0.23190166 0.09873315 0.36665 0.2643372 -0.059022743 -0.22854096
-0.12941334 0.24681352 0.32877657 -0.22102386 -0.10195727 -0.026797205 0.31033126 -0.0065797013
0.1341713 -0.14033893 0.15619084 0.37156248 -0.0039347457 0.16319303 0.0042958716 0.2534239
0.24387929 -0.030595712 -0.21835905 0.023273982 0.3648412 0.3771623 -0.25354052 -0.4083871
0.14350964 0.4409339 0.21077578 -0.42616063 -0.29707655 0.042969156 0.4626001 0.15466349
-0.2600183 -0.4079831 0.12447136 0.42259827 0.12450512 -0.19667727 -0.17631225 0.11742573
0.21863155 0.22440185 0.06992538 -0.25154582 0.18309629 -0.041326325 -0.30999702 -0.2735057
-0.4369384 0.15798615 0.184901 0.22247335 -0.08201631 -0.19626932 0.21563688 0.26640514
0.5389317 0.6361561 0.30332747 -0.24395849 0.21472788 0.14032201 0.27049106 0.33835956
-0.27654597 -0.29411843 -0.4148978 -0.30762473 0.071919635 0.17475393 -0.018099304 -0.14861263
0.058386043 0.26537237 0.131215 -0.14021568 0.11839433 -0.049674645 0.10869349 -0.009818754
0.24126263 0.038701113 -0.2856315 0.008991961 0.20796518 0.10893091 -0.14012453 -0.12602185
-0.058716573 0.1425751 0.0806772 -0.039223667 0.029050551 -0.25638264

conv1.bias f4 [6]
00000000: 6979 f5b8 32c9 853d 2978 143e 1298 203e
00000010: 88ef 303e c044 993e
-0.00011705125 0.065325156 0.14498962 0.1568301 0.17278874 0.29935265

conv2.weight f4 [16, 6, 5, 5]
00000000: 9531 5bbe f355 58be 053c 47be f8f1 97bc
00000010: b051 0bbe d9c7 19be 27c2 83bd 1792 09be
00000020: 6314 09be 83c1 96bc 0fb5 993d 53e6 2dbb
00000030: 59a6 8e3d 6565 debb 2e55 33bd 3c2d 853d
00000040: c855 883c b6fe 213d 681e 863d 829e 083e
00000050: ce65 e93b 9931 c7bc 7c27 06bd fceb e73d
00000060: 3b93 e63d e248 d43d 66ae bcbc 5032 26bd
00000070: 8e34 083e 7bea f83d bfb2 c0ba 54da b0bd
00000080: 68c4 afbc 5cd0 503c 7efa d13c 7ad7 d6bd
00000090: fbbf 48bd f8e3 d0bd 255b 7abd 12e8 cbbd
000000a0: e2ba 5fbc b19d 333d 421b 67bd ab10 5cbd
000000b0: 7ce5 b1bd 9593 533d f788 14bd 1f29 55bc
000000c0: ede5 f4bc a6e1 783c 199c 243e 0e1a 003e
000000d0: 7b45 733b 91d3 93bc 9fa9 6ebd fee9 073c
000000e0: 55cb a23d 8b9f 2abd e519 e9bd feb4 64bd
000000f0: 07bd f03d 5b92 d73c 9b62 83bd 2016 76bd
00000100: 6979 6ebd a3b3 1ebd 0567 a7bd 9ea4 81bd
00000110: da16 aabd 73bf a2bd 6680 8f3d 883b 7ebd
00000120: 555f 703b da14 ddbd 9eaa afbd edf0 fa3d
00000130: 3089 8a3d d018 243d d79d 21bd 135e 96bd
00000140: 8bb5 c83d 0365 3b3d 799b 593d a923 89bc
00000150: c6b8 8cbc cc73 0f3d 515a 703d b5dc 96bd
00000160: 4966 68bd d6f4 fa39 eca2 093e 3ecc 0ebd
00000170: 75a2 a63c ed48 e6bd 0567 99bd e709 3a3d
00000180: 4049 4abd 33c5 2a3c fe0d c0bd 62c3 97bc
00000190: 5b0a cb3d 7b8b 193d 59af e63d 0745 c43d
000001a0: 2392 203d 6365 0e3e b841 263e 3aab 603e
000001b0: df48 523d edf4 45bb 854c 57bd e475 2dbd
000001c0: cce9 c53d 8cab 6a3d c4eb b1bc 9afc d0bd
000001d0: 827d fcbc 3996 5bbd aa9b ef3c aa9f abbb
000001e0: e271 46ba 9abb 703d dd4d a1bc b04d 673d
000001f0: 0191 df3c 5460 2c3c 10ff a33d 693c aa3d
00000200: 7143 60bd 3885 b3bb 3cc5 8bba c6df 3c3d
00000210: ce0b c53d 5ac6 06bd 70bf 793c cf86 6e3b
00000220: 19bd e13d 3391 3abd 0525 a6bd 61bc 1dbd
00000230: 5b59 c73c e117 3b3c f3db a8bd bf21 b0bd
00000240: fe8e 44bd 3751 88bc 1484 853d e556 403a
00000250: e027 51bc adf6 85bd e47e 043d 2b60 1d3c
00000260: 3f6c 3dbd 7768 19bd 0936 af3c e133 b1bd
00000270: 78d5 863c 5c52 9dbc 1313 063d 3351 f43c
00000280: 5e50 6fbd a6e2 33bd ce69 003b ad4f 6abd
00000290: 3ac0 54bd 7fd7 fbbc 3809 a9bd a994 11be
000002a0: 7a13 80bc 43bb 053e 780f 6f3c abfc b7bd
000002b0: afc6 91bd efad e73d 4ffb 933d 4496 09bb
000002c0: 5d58 b83d 1538 443b 33eb 303d 2af5 96bc
000002d0: 56de 69bc 4b58 06bd 5e7d c33c 585f 023d
000002e0: 64f5 84bb 98f4 95bd e5c6 e83c a7ae d5bd
000002f0: 0696 0cbd 0e19 06bd 2adc a0bd 896e 31bb
00000300: e5ca 2e3d 7db7 163e dc0d 5e3d 3e57 383d
00000310: 5aa6 3a3d 4cc5 d53d 3750 02bd 6c9b 543d
00000320: d086 713c f327 91bb fecb 9dbd 1c33 99bd
00000330: 03ba ecbb 4107 0b3b 23bc c13d 9179 b03d
00000340: e28e 8c3d 5701 5dbd 5cb6 e73d bb6e 0f3e
00000350: 59ae a2bc 338a cf3d 2090 1dbd f427 503d
00000360: ba7b f53d 0379 f63c f00e 793d b68e 2e3c
00000370: a533 a73c 3483 e7bb f2f7 99bd 722d 89bd
00000380: d797 81bc 3e55 f93d cd4d 3d3e 2c8f 95bd
00000390: c28f 173d 42b0 5bbd 7fc7 0c3e c8c5 383e
000003a0: a17b c43d cd53 33bd e536 0d3e 7064 00bd
000003b0: 0a34 553e c104 e93d 3554 97bd 3a8f 143e
000003c0: 3d93 283c d59f 8e3d 4c08 b6bd bc5c 283d
000003d0: 89e0 dc3d 906b 47bd 799b eabc 3c8c eebd
000003e0: df35 a1bc 4257 66bd 1cab 35bd 64b6 23bd
000003f0: 9e01 a1bc 2d90 be3c 9041 7a3d bd93 cfbc
-0.21405633 -0.21126537 -0.1945649 -0.018547997 -0.1360538 -0.15017642 -0.06433516 -0.13434635
-0.13386683 -0.01840282 0.07505237 -0.002653499 0.06965322 -0.0067869895 -0.043782406 0.065027684
0.016642466 0.039549552 0.06548768 0.13341716 0.007122732 -0.024315642 -0.0327525 0.11324307
0.11258551 0.10365464 -0.023032378 -0.040575325 0.13301298 0.121540986 -0.0014701708 -0.08635393
-0.021455958 0.012744989 0.02563214 -0.10490318 -0.04901121 -0.101997316 -0.06112208 -0.09956373
-0.013655396 0.043851558 -0.05642248 -0.053726833 -0.08686349 0.051654417 -0.036263432 -0.013010292
-0.029894793 0.0151905175 0.16075172 0.12509939 0.003712027 -0.018045219 -0.058267232 0.008295534
0.07948939 -0.04165606 -0.11381892 -0.05583667 0.11754804 0.026314905 -0.06415292 -0.060079694
-0.058221254 -0.038745534 -0.08173946 -0.06330226 -0.0830514 -0.07946672 0.07006912 -0.062068492
0.0036677916 -0.10794993 -0.085774645 0.12252984 0.06764448 0.040062726 -0.03945717 -0.07342162
0.098002516 0.04575063 0.053126786 -0.016740637 -0.01717795 0.035022542 0.058679882 -0.07366315
-0.05673817 0.00047866133 0.13441056 -0.03486275 0.020341137 -0.11244378 -0.074903525 0.0454196
-0.049386263 0.0104229925 -0.09377669 -0.018525783 0.099140845 0.037486535 0.11263914 0.095834784
0.039201867 0.13905863 0.16236007 0.21940318 0.051339027 -0.0030205802 -0.05256321 -0.042348757
0.09663734 0.057292506 -0.021718867 -0.1020443 -0.030821566 -0.05361006 0.029249031 -0.0052375393
-0.00075700704 0.05877266 -0.019690448 0.056470573 0.027290823 0.010521013 0.08007634 0.083123036
-0.054751817 -0.0054785274 -0.0010663639 0.046111844 0.09621392 -0.032904007 0.015243396 0.003639627
0.11022396 -0.04554863 -0.0811253 -0.03850973 0.0243346 0.011419267 -0.08245077 -0.086001866
-0.04798793 -0.016640289 0.065193325 0.0007337167 -0.012765855 -0.0654119 0.032347575 0.009605448
-0.04624581 -0.03745314 0.02138807 -0.08652473 0.016459212 -0.019204311 0.032733034 0.029823875
-0.058426253 -0.04391732 0.0019594315 -0.05720489 -0.051941134 -0.030742405 -0.082537115 -0.14216866
-0.015634287 0.13059716 0.01459109 -0.089837395 -0.07117974 0.11312472 0.07225668 -0.0020994106
0.09001229 0.0029940654 0.043193053 -0.01842745 -0.0142742 -0.032799046 0.02386349 0.031829208
-0.004057573 -0.07322043 0.028415153 -0.10433703 -0.03432276 -0.032738738 -0.07854493 -0.002707394
0.042673964 0.14718433 0.054212436 0.045005076 0.0455688 0.10438022 -0.03181478 0.051906034
0.014741614 -0.004429811 -0.07704924 -0.074804515 -0.0072243228 0.002121404 0.09459712 0.08616937
0.0686319 -0.053956356 0.11314079 0.14007084 -0.019858526 0.10133781 -0.038467526 0.050819352
0.119864896 0.030087 0.06080526 0.010654142 0.020410368 -0.007065201 -0.07517995 -0.06698121
-0.015819473 0.12174462 0.1848671 -0.073026985 0.037002333 -0.05363489 0.13747977 0.18044198
0.09593893 -0.04378109 0.13790472 -0.031345785 0.20820633 0.1137786 -0.07389108 0.14507762
0.010289011 0.06964079 -0.08888301 0.041104063 0.10785014 -0.048686564 -0.028638588 -0.11647841
-0.019679008 -0.05623556 -0.044352636 -0.039968863 -0.019654091 0.023262108 0.06109768 -0.025339002

conv2.bias f4 [16]
00000000: 76d1 6ebc 10d0 ecbc 8736 03bd ec13 9f3d
00000010: 5cf5 04bd 9ef4 cf3d a1c0 983d 3358 6fbd
00000020: b861 fb3c b3c2 a93d 8a9c 82bd d859 a73d
00000030: 0093 403d 9fae c4bb 1a3c de3c 6223 9f3d
-0.014576307 -0.028907806 -0.032034423 0.07767472 -0.032460555 0.10154079 0.07458616 -0.058433723
0.030686244 0.08289089 -0.06377514 0.08171433 0.04701519 -0.006002262 0.027128268 0.077704206

fc1.weight f4 [84, 256]
00000000: 0472 f13c 9520 22bd 1902 c43c 5939 8cbd
00000010: 7c05 10bc ff02 fb3b 9061 ddba 70d7 b5bd
00000020: 52c2 633c a116 b8bb a7ff 223d 8172 d1ba
00000030: e014 83bc 182d 25bd 5146 883d 2230 71bd
00000040: 94df 803c 0629 07bd 058d 34bd fd5e f13c
00000050: ef2a dabc cde1 473d 7e8a 813d 4ab2 06bd
00000060: 61d2 1dbd 5bae 02bd 421f a1bb b0e1 e1bb
00000070: 1f1d 433d 3025 11bd 03a7 19bc b7d0 efbc
00000080: 4520 2dbb 4186 10bd c9af 8abd c511 023d
00000090: 44e4 0e3d 80d8 11bd b528 4abd 51c8 043d
000000a0: 2b52 7b3d cf5f 293c b870 26bc 10e9 9e3c
000000b0: 1046 973c 1e74 ba3c ba32 5d3d a457 14bc
000000c0: d3d6 21bd cf41 203c 147e 9fbc 6aa9 86bd
000000d0: f8f9 753d d552 4e3c 191b 8c3c b8c6 0e3d
000000e0: a1f0 813d 5f53 3fbb 2eed 54bb f4c9 a1bc
000000f0: 6ff9 b63c aed6 61bd 1f72 45bd 67f9 443c
00000100: b108 873d 8c9c 21bd e88a 053d 745d e1bb
00000110: 9f97 afbc 8870 6fbd 41b3 0e3d 358b 20bd
00000120: 52d4 93bc d49b 46bd b6c4 42bd 8cd4 1c3d
00000130: ccbc 39bd af33 623b 1371 d1bc 5532 f23c
00000140: d14d e6ba 3fa4 b53d 94a9 eb3d e13c 323d
00000150: 9d4f ecbc c9ac 67bc bc9b bc3b c69d 29bd
00000160: ef6f f13c e500 17bd 0598 023a efbf 0bbd
00000170: 3b3e 033d 691d b2bc db7c 21bd 05e7 3dbd
00000180: 35e6 353d 34c9 56bb 04f1 333d 394a be3c
00000190: e289 153d 6ded a6bc e068 26bd 00c1 c43c
000001a0: 04e9 6f3d 402f fc3b 62da 833c 1286 1c3d
000001b0: 6bc2 8c3a 2b8f d43c b8e5 6c3d b8bc 7dbd
000001c0: f9b5 2ebd ce15 2ebd c3de 6d3d e8cd 3a3d
000001d0: 819b a538 9b04 413d 61bf 3ebd 9016 633d
000001e0: 81b2 95bd 4206 3cbd 9033 88bd 59a7 01bd
000001f0: 56bb a03c ab34 4ebd 2c7e 423d 00dd 93bc
00000200: 6999 a2bd a04a 163b ffdc b23c e3f1 5f3d
00000210: a1fa 18bc 180e 773d 4d7f fcbc 3f50 1bbd
00000220: e0ea a33d 3863 f43c 8214 6bbd 2a04 02bc
00000230: c18c b53d 46fa 7c3c fa8d 153c b9e6 5fbc
00000240: c20d 80bd 6733 4abd e216 adbc 0c99 17bc
00000250: 3611 183d 21a7 153a 1058 8a3d d2c4 083d
00000260: 5a10 dc3c f186 a83c e03a 16bd cd91 91bd
00000270: b106 1d3d 8f5d 81bd 2b85 b03c ff57 82bd
00000280: f744 363d dba3 05bc 67ac 76bd 320b 31bd
00000290: 4234 ecbc 5b2b 49bd c928 38bd e79f 98bd
000002a0: 876c a1bd 05b2 e6bc 471d 9c3d 8185 623b
000002b0: 6c40 3b3d 06ed acbd c6ad 83bc 96a8 ed3c
000002c0: 3e46 1b3d ea7d 05bc 4a16 c03d 6801 b63c
000002d0: dee3 16bd 2e92 8e3b 75c4 ad3c d411 75bd
000002e0: 4c57 50bd 8f4c 653d 6a66 83bc 0479 93bc
000002f0: 7b61 b5ba 0d97 193b 9b6f b33c 4e09 af3b
00000300: 4be4 17bd 56ab f03c fed6 6bbb 1ffc 943c
00000310: 0b6b b43d 2771 30bd 67db 48bd 3fa1 4e3d
00000320: 38ca 8c3d 43aa 0bbc f15e a9bc 937b 36bd
00000330: 9d1c 11bc 2874 5fbc 2df5 243d bb3a 9bbc
00000340: 63db 0ebd 4d90 9ebb cf9f 92bc eb7e 25bd
00000350: a3d5 8cbd 4639 61bd d808 97bc 8e0c 88bc
00000360: 68fd 053d 0c15 473c aa20 6abd 6cba 71bd
00000370: 4268 21bc ecd2 90bc d7da 47bd 5caf 08bc
00000380: b522 e3bc c2f8 433c b576 5a3d 3585 9abd
00000390: 909e 053d dff1 2bbd c325 92bd 199e d33c
000003a0: 1a58 983a ccc5 8f3d 0785 cdbc a6b9 d83b
000003b0: f469 93bc 3b33 ef3c 095d 063d 609b 213c
000003c0: f9cc 4a3c 6ebb acba 2c70 5bbd d65d 453b
000003d0: a437 22bd 9cd8 23bd f4ee 01bd 8b79 3ebd
000003e0: 8aac 6b3d 307e 90b5 5ddf 94bc e475 83bd
000003f0: 9891 e73c 7a91 2abd 54c6 96bd 37eb dc3c
0.029473312 -0.039581854 0.023926781 -0.06846876 -0.00879037 0.0076602693 -0.0016890038 -0.08878982
0.01390131 -0.005617932 0.03979459 -0.0015979559 -0.016001165 -0.040326208 0.06654037 -0.058883794
0.01573161 -0.032998107 -0.0440798 0.02946424 -0.0266318 0.048799325 0.063252434 -0.032884873
-0.03853071 -0.03190456 -0.0049170563 -0.006893359 0.047635194 -0.035435855 -0.009378198 -0.029274328
-0.002641694 -0.035284285 -0.067718096 0.031755228 0.03488566 -0.03560686 -0.049355228 0.0324176
0.06135766 0.010337784 -0.01015871 0.019398242 0.018466026 0.022760447 0.054003455 -0.009054098
-0.039511513 0.009781315 -0.019469298 -0.06575282 0.060052842 0.012592991 0.017102765 0.03485748
0.063447244 -0.002919398 -0.0032490003 -0.019749619 0.022335736 -0.055136375 -0.048204537 0.012022353
0.06593455 -0.039455935 0.032603174 -0.0068775956 -0.021434603 -0.058456928 0.03483892 -0.03919526
-0.018045578 -0.048488453 -0.04755088 0.038288638 -0.045346066 0.003451567 -0.025566613 0.029565016
-0.0017570799 0.08869218 0.11506954 0.04351509 -0.028846556 -0.014140316 0.0057558697 -0.04141023
0.02947232 -0.036866087 0.0004981759 -0.03411859 0.03204177 -0.02174254 -0.039425712 -0.046362896
0.044408996 -0.0032773735 0.043931022 0.023228751 0.03650845 -0.020376885 -0.04062736 0.02401781
0.05857183 0.0076960623 0.016095344 0.038213797 0.0010739093 0.025947174 0.057836264 -0.061947554
-0.04265401 -0.042501263 0.05807377 0.045606524 7.896778e-05 0.047123533 -0.046569232 0.05544144
-0.073094375 -0.045904405 -0.0665046 -0.031653736 0.019620579 -0.050343197 0.047483608 -0.018049717
-0.07939417 0.0022932664 0.021833895 0.05467404 -0.009337098 0.060316175 -0.03082242 -0.037918326
0.08003783 0.029832467 -0.057392605 -0.007935563 0.08864737 0.015440529 0.009128088 -0.013665848
-0.06252624 -0.049365427 -0.021129075 -0.009252798 0.03712579 0.0005708803 0.06755078 0.033390827
0.026863266 0.020572158 -0.03667724 -0.071078874 0.03833646 -0.06316673 0.021547874 -0.0636444
0.044499364 -0.008156742 -0.06022301 -0.043223567 -0.028833512 -0.049113613 -0.04496077 -0.07452374
-0.07882028 -0.028161058 0.07622772 0.0034564438 0.045715734 -0.08443646 -0.016074073 0.029011052
0.037908785 -0.008147696 0.09379251 0.022217467 -0.036838405 0.004350922 0.021211842 -0.059831455
-0.050864503 0.055981215 -0.016040046 -0.01800204 -0.0013838256 0.002343598 0.021903804 0.0053416854
-0.03708295 0.029378574 -0.00359863 0.018186627 0.08809479 -0.04307666 -0.049037363 0.050446745
0.06874508 -0.00852448 -0.020675154 -0.044551443 -0.00885692 -0.013638534 0.04027288 -0.018948903
-0.034877192 -0.0048389793 -0.017898468 -0.04040424 -0.068766855 -0.05498626 -0.018436834 -0.016607549
0.03271237 0.012151014 -0.057160057 -0.059015676 -0.009851517 -0.0176787 -0.048792686 -0.00834259
-0.02772651 0.011961164 0.053335864 -0.075449385 0.03262192 -0.041978713 -0.07136109 0.025832223
0.0011622936 0.07020149 -0.025087846 0.006613928 -0.017994858 0.029199233 0.03280357 0.009863704
0.012377971 -0.0013178417 -0.053573772 0.0030115745 -0.039603844 -0.040001497 -0.031722024 -0.04650263
0.057537593 -1.0765561e-06 -0.018172914 -0.0641897 0.028267667 -0.041642644 -0.07362047 0.026967628

fc1.bias f4 [84]
00000000: 03ba ddbc 8d73 3abd 755d 7a3c f775 403d
00000010: bdf9 0f3d ec06 11bc 131b 333d 0915 a03c
00000020: a9f9 96bc 65f0 b13c e113 033c eeeb 0ebd
00000030: ff61 0e3c 4e40 15bd 99fc b03c 6c4d 313d
00000040: 98cb 2b3d 3988 2a3d 0ae0 dcbc e726 463d
00000050: b5f5 393d 5ca8 0cbd 8b48 fdba 0c60 21bd
00000060: 81ff 7ebd c65d 263d 85f5 3fbd 52fd ab3c
00000070: 49a7 003d c883 32bd e087 963c 531b 43bd
00000080: eb9e 013d 2349 c1bc 2cf3 b0bc 6a41 253d
00000090: cfc0 703d eb0f 0f3d 981a 643d 61f7 8e3c
000000a0: 0c12 1d3d c959 773d 1936 f93c 94fc 403d
000000b0: 34e8 d9bc 327a 5dbd 4448 c33b d0b4 a3bc
000000c0: f39c 313d df69 333d a9d9 3cbc 234b d63b
000000d0: 8987 dc3c 0188 43bd 99af bc3c 285d ca3c
000000e0: 8acf 333c 26ad 20bd 3c7d e73b 3fc2 743d
000000f0: 53b0 7ebd 6a47 babc ec72 52bd a704 633b
00000100: de98 0cbd 8f57 e73c 4926 373c 55db 3e3c
00000110: 38b0 cf3c 29b4 d0bc 2f82 1fbd 5b66 0cbd
00000120: 1d18 d83c 87e8 693c fa12 e6bc 8ecd 693c
00000130: 4c0c 37bd b30b 71bc 4956 fc3c f5ea 673d
00000140: da59 9bbc 1b0e c13c e63d 25bd 200c e53c
-0.027066236 -0.045520354 0.015281071 0.0469875 0.03515028 -0.008851748 0.04372699 0.01954128
-0.018429594 0.021721074 0.008000345 -0.03489297 0.008690356 -0.03643828 0.021604823 0.043286726
0.04194221 0.04163382 -0.026962299 0.048376944 0.04540034 -0.034340248 -0.0019323988 -0.039398238
-0.062255386 0.040616773 -0.046865005 0.020994816 0.031409536 -0.043582708 0.018375337 -0.04763348
0.031645697 -0.023594445 -0.021600328 0.040345587 0.058777627 0.03492729 0.055689424 0.017451944
0.03834729 0.06038836 0.030421304 0.047115877 -0.02659998 -0.054071613 0.0059595425 -0.019983679
0.04336257 0.04380214 -0.011526504 0.0065397187 0.026920097 -0.047737125 0.02303295 0.024702623
0.010974774 -0.039227627 0.0070644896 0.05975556 -0.062179875 -0.022739131 -0.05137913 0.0034640224
-0.034325473 0.028239993 0.0111785615 0.0116489725 0.025352582 -0.025476532 -0.038942512 -0.0342773
0.026378686 0.01427663 -0.02808522 0.014270199 -0.04468946 -0.014712262 0.030802863 0.056620557
-0.018963743 0.023566296 -0.040342234 0.027959883

fc2.weight f4 [10, 84]
00000000: 6d5e 843d 4882 dabc df90 30be 8863 37bc
00000010: 89b9 aa3c 61e0 1fbd b0a2 c0bd b486 223e
00000020: 0c6b b03d c371 38be 7b29 1cbe 0d30 ad3c
00000030: c5ce 44bd 1e0d 073e 4f71 c6bd a3a5 7cbd
00000040: bd3f f2bc b16d 96bd f38e e9bd 122d 873d
00000050: a827 cdbc df95 32be 0cc6 ccbd 8739 203c
00000060: 9155 04bd ed35 223e 9e82 bf3d abc2 99ba
00000070: 4b62 57bc 6bb1 5f3d 386a 993d 681a f1bc
00000080: 81fe 143e a256 21be 6749 c3bd 4f59 6a3d
00000090: db74 f4bd 502d 4fbe 6128 71bd cba9 bcbd
000000a0: f728 4cbd 62a3 e5bd 63ca 66bd b9ae 803b
000000b0: 4409 37be 18fb 393e 3118 10be 2127 433e
000000c0: 1cb3 e33c fca6 fa3c e160 7c3d 168d 07be
000000d0: 37b7 14bd 88e2 59bc 65fc 4d3d 2b7b abbd
000000e0: e1a4 08be 6dd3 3b3e d036 c63c f3d5 743d
000000f0: f599 18be 300e 0dbe b0e6 c9bd f662 df3c
00000100: 9a49 343d c0af 193e a23e f73a 0474 dd3b
00000110: e089 d03c 0820 273e 75d3 a6bc 312b 8fbb
00000120: 1f1e 6b3d 0e28 283e 8369 1abe a68b 04bd
00000130: 50d7 463d 4962 82bd 883c 7cbd 76ac 11be
00000140: a3d2 5abd 6d89 9c3d 62d2 8cbc 590f 4e3e
00000150: 1268 39be 90bd 153e e410 043e e103 1fbe
00000160: f5af c8bd 74a0 2f3e 7da9 9abc e388 74bd
00000170: 12a2 43be ab5a 22bc a942 173e 95c4 ed3d
00000180: f45e e93c b5e1 143e d5ba 12be d7b5 223e
00000190: 24da dc3d 0a5a 04bb 18e4 1b3e d19b a13d
000001a0: e0a2 0a3e 9d18 193d 0cc5 c8bd c298 15bc
000001b0: 2673 a9bc 8199 25bd 7435 8f3d bbc5 0c3e
000001c0: 881f 233e f832 74bd 5a6d e3bd e92a 03bd
000001d0: ee04 78bc 2f1e 923d 641a dbbd ea3f d8bc
000001e0: 13ab 273e 7dbe 44be de78 093e 99ee 14be
000001f0: 0a71 e53d 7276 c9bc 83ae 30be ef7a b03d
00000200: 873b 2a3e b901 223e 1e04 c6bd 486f 2b3d
00000210: 7bbe 0e3e 63e5 d6bd bf9c 01be 362b 263e
00000220: b022 d33d 4709 f33d 7d94 38bd ac6b c93d
00000230: 4d2d f2bd 7816 11be 48e8 9dbd 7723 74bd
00000240: 1d60 943d 58b2 283d 95c1 333e dba7 99bd
00000250: 6802 45bd 4c9b 89bd adc9 0bbe d7c9 fb3c
00000260: e5b1 0dbe ac39 30bd eb19 25be 210d 303e
00000270: 009c 92bc c1d8 91bd 34a0 cabc 8cef d0bd
00000280: 2781 0dbe c55c 10be 4329 62bc 6999 e9bc
00000290: 213a 843d 1cb0 803c 4957 f4bd 2f3d 1cbe
000002a0: d34f c6bc 946a 1e3e 089b 0f3d 8af4 4dbe
000002b0: 8811 043e d62b 0dbe b325 d5bd eec1 8ebd
000002c0: 025c 21be 088b 47bc 89c9 b43d 049d 093e
000002d0: 577e bb3b 8703 e23b a548 743e b288 df3c
000002e0: 6187 4c3d c80b 13be a0a3 1dbe c523 0cbe
000002f0: 918a 953d 8aec aebd c191 25be 94de 32be
00000300: 9516 cfbc 2d56 173e 26ac 423e 6b64 24bb
00000310: 5469 06be e996 cfbd 0e0c 64bd b3e1 373c
00000320: 67c6 b7bd 1c81 8e3c 498d debd 1b68 f6bd
00000330: 385f b93d 57ea db3c bbc5 99be 5029 db3d
00000340: 966d 2bbd 3410 1cbe c84f 29bd 4f56 76bd
00000350: 8e6e 96bd ac65 8f3c a97f 3cbd 78ca 5c3d
00000360: 4dbc 1ebe b5c7 3c3d 335a 513e fc2a 993d
00000370: e174 af3d 0d9d 003e 8d52 d1bc 666c eabd
00000380: 59ce 3abe 93e3 06be dfae 06bd bff5 85bd
00000390: 6cd2 8b3d 0212 eb3c 2058 1ebd 6dbf f9bd
000003a0: 795e ee3d 478a 033e 9c8e 90bc 7987 083e
000003b0: ea2d 0ebe 9296 43bd 6a4b 69bd b49b 2f3b
000003c0: 6fca 833d 83d7 203e 4696 2dbe d094 1bbe
000003d0: 47d5 5bbe 6e5e 20be 3a13 9b3d eab7 26be
000003e0: ae00 9cbd 168e 17be 7d1b 1ebe 08e8 96bd
000003f0: c272 14bd b09c 553c e209 1c3e 5e13 a93d
0.06463323 -0.026673451 -0.17242764 -0.011193164 0.020840423 -0.039032344 -0.0940603 0.15871698
0.086141676 -0.18012147 -0.15250199 0.021141076 -0.048048753 0.13188598 -0.09689581 -0.0616814
-0.029571408 -0.07345141 -0.114042185 0.06600393 -0.025043324 -0.17439984 -0.09998712 0.009779341
-0.032308165 0.15840884 0.09351085 -0.0011730989 -0.013145993 0.05461256 0.07490963 -0.029431537
0.1455021 -0.15755704 -0.09535485 0.057214078 -0.11936351 -0.20232129 -0.0588764 -0.09212073
-0.049843755 -0.112128034 -0.056345355 0.0039270786 -0.17874628 0.18162191 -0.14071728 0.19057895
0.027795367 0.030597202 0.06161583 -0.13237414 -0.03630754 -0.013298638 0.05028953 -0.08373102
-0.13344146 0.18342371 0.024196059 0.05977435 -0.1490248 -0.13774943 -0.09858453 0.027268868
0.044015504 0.1500845 0.001886327 0.006758215 0.025456369 0.16320813 -0.020364502 -0.0043691625
0.057401773 0.1642153 -0.15079312 -0.03235974 0.04854518 -0.06366403 -0.061581165 -0.14225945
-0.053423535 0.076433994 -0.017190162 0.20123042 -0.18106106 0.14623094 0.12897068 -0.15528823
-0.09799186 0.17151052 -0.018879646 -0.059700858 -0.19104794 -0.009909312 0.14771523 0.11609761
0.02848766 0.14539225 -0.14329083 0.15889679 0.107837945 -0.002019527 0.1522373 0.07891048
0.13538694 0.03737699 -0.09803209 -0.009130659 -0.02068479 -0.040429596 0.06992617 0.13747303
0.15929997 -0.05961892 -0.111048415 -0.032023344 -0.015137894 0.07134663 -0.10698393 -0.026397664
0.16373853 -0.1921329 0.13425013 -0.14544143 0.11203201 -0.024592612 -0.17254071 0.08617198
0.1662427 0.1582097 -0.09668754 0.041854173 0.1393985 -0.10492971 -0.1265745 0.16227421
0.103093505 0.11867004 -0.045063484 0.0983499 -0.11825047 -0.14168727 -0.0771032 -0.059604134
0.07244895 0.041185707 0.17554314 -0.07502719 -0.048097998 -0.06719074 -0.13651152 0.030735893
-0.13837393 -0.04302375 -0.16123168 0.17192508 -0.017896652 -0.07121421 -0.024734594 -0.1020194
-0.13818799 -0.14097889 -0.013803783 -0.028515534 0.064564 0.015708975 -0.11930711 -0.15257715
-0.024207985 0.15470344 0.03505996 -0.20112815 0.12897313 -0.13786253 -0.10407581 -0.06970583
-0.15757754 -0.012179144 0.08827502 0.13438803 0.005721848 0.006897393 0.23855837 0.027286861
0.049933795 -0.14359963 -0.15394449 -0.1368552 0.0730182 -0.0854121 -0.16168882 -0.1746772
-0.025279323 0.14778967 0.19010982 -0.0025084268 -0.13126117 -0.10136206 -0.05567556 0.0112232445
-0.08973389 0.017395549 -0.10866792 -0.12031575 0.09051365 0.02684514 -0.3003367 0.10701239
-0.041852556 -0.15240556 -0.04133585 -0.060140904 -0.073453054 0.017504536 -0.046020184 0.053904027
-0.15501519 0.046088893 0.20444565 0.07478902 0.08567215 0.1255991 -0.025552059 -0.114464566
-0.18242778 -0.1317275 -0.032881614 -0.06541013 0.06827244 0.02869511 -0.03865826 -0.12194715
0.11639113 0.12845717 -0.017646126 0.13332929 -0.13884702 -0.047751017 -0.056956686 0.0026795687
0.064350955 0.15707211 -0.16951856 -0.15193486 -0.21468078 -0.15661022 0.075720266 -0.16281095
-0.07617317 -0.14800295 -0.15440173 -0.07368475 -0.036242254 0.0130378455 0.15238145 0.08255647

fc2.bias f4 [10]
00000000: 0ecd 813d 40f3 803d 46ab 70bd 0fd6 8dbd
00000010: 8c10 24bc bd6c a93d 73e6 213c ef20 51bc
00000020: dce6 9ebc 17f2 393d
0.06337939 0.06296396 -0.05875709 -0.06925594 -0.010013711 0.08272693 0.0098816035 -0.0127642
-0.019397192 0.04539689
